…
{"cell_type":"code","exec_count":14,"id":"40bda8","input":"# triplet_model_a = Input((224,224,3))\n# triplet_model_p = Input((224,224,3))\n# triplet_model_n = Input((224,224,3))\n\n# triplet_model_out = Concatenate()([model(triplet_model_a) , model(triplet_model_p) , model(triplet_model_n)])\n# triplet_model = Model([triplet_model_a , triplet_model_p , triplet_model_n], triplet_model_out)\n# triplet_model.summary()\n# triplet_model.compile(loss=tripletloss, optimizer= \"adam\")","output":{"0":{"name":"stdout","output_type":"stream","text":"Model: \"model_1\"\n__________________________________________________________________________________________________\nLayer (type)                    Output Shape         Param #     Connected to                     \n==================================================================================================\ninput_2 (InputLayer)            [(None, 224, 224, 3) 0                                            \n__________________________________________________________________________________________________\ninput_3 (InputLayer)            [(None, 224, 224, 3) 0                                            \n__________________________________________________________________________________________________\ninput_4 (InputLayer)            [(None, 224, 224, 3) 0                                            \n__________________________________________________________________________________________________\nmodel (Functional)              (None, 2)            15242050    input_2[0][0]                    \n                                                                 input_3[0][0]                    \n                                                                 input_4[0][0]                    \n__________________________________________________________________________________________________\nconcatenate (Concatenate)       (None, 6)            0           model[0][0]                      \n                                                                 model[1][0]                      \n                                                                 model[2][0]                      \n==================================================================================================\nTotal params: 15,242,050\nTrainable params: 527,362\nNon-trainable params: 14,714,688\n__________________________________________________________________________________________________\n"}},"pos":13,"type":"cell"}
…
 *after* setting layers to non-trainable)\nmodel_fully_trained.compile(optimizer='adam', loss='categorical_crossentropy')\nmodel_fully_trained.summary()","output":{"0":{"name":"stdout","output_type":"stream","text":"Model: \"model_2\"\n_________________________________________________________________\nLayer (type)                 Output Shape              Param #   \n=================================================================\ninput_5 (InputLayer)         [(None, 224, 224, 3)]     0         \n_________________________________________________________________\nblock1_conv1 (Conv2D)        (None, 224, 224, 64)      1792      \n_________________________________________________________________\nblock1_conv2 (Conv2D)        (None, 224, 224, 64)      36928     \n_________________________________________________________________\nblock1_pool (MaxPooling2D)   (None, 112, 112, 64)      0         \n_________________________________________________________________\nblock2_conv1 (Conv2D)        (None, 112, 112, 128)     73856     \n_________________________________________________________________\nblock2_conv2 (Conv2D)        (None, 112, 112, 128)     147584    \n_________________________________________________________________\nblock2_pool (MaxPooling2D)   (None, 56, 56, 128)       0         \n_________________________________________________________________\nblock3_conv1 (Conv2D)        (None, 56, 56, 256)       295168    \n_________________________________________________________________\nblock3_conv2 (Conv2D)        (None, 56, 56, 256)       590080    \n_________________________________________________________________\nblock3_conv3 (Conv2D)        (None, 56, 56, 256)       590080    \n_________________________________________________________________\nblock3_pool (MaxPooling2D)   (None, 28, 28, 256)       0         \n_________________________________________________________________\nblock4_conv1 (Conv2D)        (None, 28, 28, 512)       1180160   \n_________________________________________________________________\nblock4_conv2 (Conv2D)        (None, 28, 28, 512)       2359808   \n_________________________________________________________________\nblock4_conv3 (Conv2D)        (None, 28, 28, 512)       2359808   \n_________________________________________________________________\nblock4_pool (MaxPooling2D)   (None, 14, 14, 512)       0         \n_________________________________________________________________\nblock5_conv1 (Conv2D)        (None, 14, 14, 512)       2359808   \n_________________________________________________________________\nblock5_conv2 (Conv2D)        (None, 14, 14, 512)       2359808   \n_________________________________________________________________\nblock5_conv3 (Conv2D)        (None, 14, 14, 512)       2359808   \n_________________________________________________________________\nblock5_pool (MaxPooling2D)   (None, 7, 7, 512)         0         \n_________________________________________________________________\nglobal_average_pooling2d_1 ( (None, 512)               0         \n=================================================================\nTotal params: 14,714,688\nTrainable params: 0\nNon-trainable params: 14,714,688\n_________________________________________________________________\n"}},"pos":17,"type":"cell"}
{"cell_type":"code","exec_count":19,"id":"df9fe5","input":"# vec_tmp_test = model_fully_trained.predict(X)   # DO NOT RUN THIS BLOCK, READ COMMENT
…
